TBSA-System/models/ppo_models/cnn/withobs_model/policy.pth (torch, 83708 bytes, 12 tensors)

log_std f4 [2]
0	0x3ff48a2d	1.9104668
1	0x3f95c85d	1.1701771

mlp_extractor.policy_net.0.weight f4 [64, 86]
0	0x3d9d1443	0.0766988
1	0x3dc1a01f	0.09454369
2	0x3ee63d8a	0.44968826
3	0x3e6d25fe	0.23159024
4	0xbe00d3cc	-0.12580794
5	0xbd3c5f30	-0.045989215
6	0x3ee432ba	0.4456995
7	0x3d4642c4	0.048403516
8	0xbe1e4f31	-0.15459897
9	0x3d581f22	0.052764066
10	0xbe36fb6e	-0.1786935
11	0xbd0c92bf	-0.034319635
12	0x3e4e3230	0.20136333
13	0x3dc695ca	0.09696539
14	0xbce05575	-0.0273845
15	0x3e2de282	0.16980937
16	0xbd466007	-0.048431423
17	0xbe01c1d7	-0.126716
18	0xbe3cd1f2	-0.18439463
19	0x3c4463ae	0.011986656
20	0xbd93bea7	-0.072140984
21	0x3dedd583	0.1161299
22	0x3e0dc5c2	0.1384497
23	0x3ef2eb29	0.47445038
24	0x3d846a44	0.06465581
25	0x3e57549d	0.21028371
26	0x3c0dbe58	0.0086513385
27	0x3e7809f3	0.24222545
28	0xbd441ab2	-0.04787702
29	0xbd597af2	-0.053095765
30	0xbdc7fa59	-0.09764547
31	0xbe77b782	-0.24191096
32	0xbe4a4625	-0.1975332
33	0xbca5a724	-0.0202213
34	0x3e53a613	0.20668821
35	0xbe1c2bb3	-0.15251045
36	0x3e077cb9	0.13231172
37	0x3cd57a80	0.02605939
38	0xbdc0b7f1	-0.09410084
39	0x3dda23d5	0.10651366
40	0xbe88720d	-0.26649514
41	0x3df481a8	0.119387925
42	0xbe5160a0	-0.20447016
43	0x3d92a25c	0.07159874
44	0x3cd7fca9	0.026365595
45	0xbc3a8755	-0.011384805
46	0x3d82ebfc	0.06392667
47	0xbdadd5be	-0.08488034
48	0xbbab858c	-0.005234426
49	0x3d3029ad	0.043008495
50	0x3ceb7916	0.028744262
51	0x3d2aaa85	0.041666526
52	0x3e45fcb1	0.19334675
53	0xbe435138	-0.19073951
54	0xbd0aa6a9	-0.033850346
55	0x3dceddb2	0.10100879
56	0xbdb0a898	-0.08625907
57	0x3e9927ee	0.29913276
58	0xbe340061	-0.1757827
59	0x3ddaf7c3	0.10691788
60	0xbd0ef17a	-0.03489826
61	0xbda64c74	-0.08120051
62	0xbe32f6cf	-0.17476963
63	0xbd50f5b3	-0.051015567
64	0x3e6199f4	0.22031385
65	0x3c165d2a	0.0091774855
66	0x3e3fd8a5	0.18734987
67	0xbe0ce00b	-0.1375734
68	0xbcd7911e	-0.026314314
69	0xbd96a5f1	-0.073558696
70	0xbe1dc7f5	-0.15408309
71	0xbd8c9748	-0.06864792
72	0x3d88e271	0.06683815
73	0xbe4859e1	-0.19565536
74	0xbe228e11	-0.15874507
75	0xbdad4690	-0.08460724
76	0xbe169458	-0.14705026
77	0x3e7dfb48	0.24802887
78	0xbd06c549	-0.03290299
79	0xbd20d9d2	-0.03927023
80	0xbe11fbce	-0.14256212
81	0x3df52538	0.119699895
82	0xbc3fc55c	-0.011704769
83	0xbd98e645	-0.074657954
84	0xbe6b4f37	-0.22979437
85	0x3e4d776c	0.20065087
86	0x3d8bcdc7	0.06826358
87	0xbda10510	-0.07862294
88	0x3cd0c109	0.025482671
89	0x3dded2bc	0.10880038
90	0xbde31cb4	-0.11089459
91	0x3e01c947	0.12674437
92	0x3e49b913	0.19699506
93	0xbe3e5627	-0.18587552
94	0x3d47f276	0.048815213
95	0xbd2fd2f2	-0.042925783
96	0xbd200730	-0.039069355
97	0xbe8bd30a	-0.27309448
98	0x3d9680c7	0.07348781
99	0x3cacf850	0.021114498
100	0xbdfb8b91	-0.122824796
101	0xbdd91048	-0.105988085
102	0xbdd7db52	-0.10539879
103	0xbe1a4f7f	-0.15069388
104	0x3c23d81d	0.010000256
105	0xbc6a093c	-0.014284428
106	0xbd0d0087	-0.03442433
107	0xbe428316	-0.18995318
108	0xbe8d19d2	-0.27558762
109	0xbe4806c5	-0.19533832
110	0x3ded7e19	0.11596317
111	0x3dc13dab	0.0943559
112	0xbd6612f2	-0.05617041
113	0x3dd25dd9	0.10271806
114	0x3cb74775	0.02237294
115	0x3c3c250b	0.011483441
116	0xbbfeccfd	-0.0077759014
117	0x3df9d177	0.121981554
118	0xbe61d3b8	-0.2205342
119	0x3d10fc45	0.035396833
120	0xbdbe99d5	-0.09306685
121	0xbf0bbbea	-0.5458361
122	0xbd393a71	-0.04522175
123	0x3e5e4f76	0.2171
124	0xbea0fd5c	-0.31443298
125	0xbb185f03	-0.002324999
126	0x3cbacdf4	0.022803284
127	0xbee3de34	-0.44505465
128	0xbe4947a9	-0.19656242
129	0x3afb48a7	0.0019171432
130	0x3df28c81	0.11843205
131	0xbe9065d5	-0.28202692
132	0xbe3df9f2	-0.18552378
133	0xbd994db5	-0.074855246
134	0x3d9e85d1	0.07740367
135	0x3daeb227	0.085300736
136	0x3cf1bcfe	0.029509064
137	0x3d78a00d	0.06069951
138	0xbdb5987b	-0.08866974
139	0xbe76c0a4	-0.24096924
140	0xbdfdf61e	-0.12400459
141	0x3ca296f0	0.019847363
142	0x3dc8df51	0.09808219
143	0x3ea2a7d1	0.3176866
144	0x3d664353	0.05621655
145	0x3e47ac88	0.19499409
146	0xbe455d55	-0.19273885
147	0x3e8784b2	0.26468426
148	0xbd9a9112	-0.07547201
149	0xbd293176	-0.041306935
150	0xbe1149cb	-0.14188306
151	0xbda6ab19	-0.08138103
152	0xbdbff3da	-0.09372683
153	0x3d43b07f	0.04777574
154	0x3c81e52a	0.015856344
155	0xbc3da620	-0.011575252
156	0x3c96ec4a	0.018423218
157	0xbd9101d0	-0.07080424
158	0xbd9b2869	-0.07576067
159	0xbc7ae19d	-0.015312579
160	0x3e86dcfd	0.26340476
161	0x3db41e6b	0.08794864
162	0x3c79a202	0.01523638
163	0xbcf08800	-0.029361725
164	0x3e47217d	0.19446369
165	0xbdea6683	-0.11445334
166	0x3cfdbd8d	0.030974174
167	0x3cc18e3d	0.023627395
168	0x3d900f49	0.070341654
169	0xbe668780	-0.22512627
170	0x3e0ecd96	0.13945612
171	0xbe3c7a7a	-0.18406096
172	0xbdc9246d	-0.09821401
173	0xbe091eea	-0.13390699
174	0x3cfd407a	0.030914534
175	0xbdb8867d	-0.090100266
176	0xbdf1a4b6	-0.11798994
177	0x3c98a2c9	0.01863231
178	0xbe11eec1	-0.14251234
179	0xbe21a149	-0.15784182
180	0x3e5972fb	0.21235268
181	0xbe9cffb0	-0.30663824
182	0xbd77be49	-0.060484204
183	0xbde45c90	-0.111504674
184	0xbea9a7ec	-0.33135927
185	0x3d8bbede	0.068235144
186	0x3d90a03e	0.07061814
187	0xbc07729e	-0.008267073
188	0xbe985708	-0.297539
189	0xbdacf115	-0.0844442
190	0x3e7a55a1	0.24446727
191	0xbe1cb2ca	-0.15302578
192	0x3e71ff5b	0.23632567
193	0x3dc521d2	0.09625591
194	0xbc7e64c7	-0.015526957
195	0x3e997524	0.29972184
196	0xbd37aa86	-0.04484036
197	0xbe4f8deb	-0.20268981
198	0xbbaa40f6	-0.005195732
199	0x3c49c2b9	0.012314492
200	0x3dfe97d2	0.12431301
201	0x3e9ecdee	0.31016487
202	0x3d79899e	0.060922258
203	0x3eb6d995	0.35712877
204	0x3e08de53	0.1336606
205	0x3da739aa	0.081652954
206	0x3e2b1efa	0.16711035
207	0xbc97ead0	-0.018544585
208	0x3c8204a1	0.015871348
209	0x3de6b0cf	0.11264192
210	0xbd62d800	-0.055381775
211	0xbdbe05c4	-0.092784435
212	0xbe05e65d	-0.13076158
213	0x3e021e85	0.12706955
214	0xbd9efdae	-0.07763229
215	0x3d70185b	0.058616977
216	0x3c927723	0.017879074
217	0xbe015154	-0.1262868
218	0x3d1de306	0.038546585
219	0xbbbaa452	-0.005695858
220	0xbe595fe3	-0.21227984
221	0xbe131d47	-0.14366637
222	0x3da280f0	0.07934749
223	0xbda01ac9	-0.07817609
224	0xbc61ff3d	-0.013793764
225	0xbda54d8a	-0.0807143
226	0xbdb97590	-0.090556264
227	0x3d666f3b	0.05625842
228	0xbe35a35d	-0.177381
229	0x3e3ccfe9	0.18438686
230	0x3e4ae94b	0.19815557
231	0xbc9f7afa	-0.01946782
232	0xbcc56219	-0.024094628
233	0x3e0dc2a2	0.13843778
234	0x3d8247cf	0.06361353
235	0x3ecc9b86	0.39962405
236	0x3db62852	0.08894409
237	0x3df3911c	0.11892912
238	0xbdb73809	-0.08946235
239	0xbe47faa9	-0.19529213
240	0x3e47c017	0.1950687
241	0x3dcf9137	0.101351194
242	0xbe9e0237	-0.30861065
243	0xbcd88874	-0.026432253
244	0x3e1a44dc	0.1506533
245	0xbd78937f	-0.06068754
246	0xbd3fd730	-0.04683608
247	0x3d40c6db	0.047064643
248	0xbe09e2f4	-0.13465482
249	0x3d022756	0.031775795
250	0xbe118447	-0.14210616
251	0xbe84348e	-0.25821346
252	0x3e827878	0.25482535
253	0xbe256771	-0.16152741
254	0x3d2638f4	0.04058166
255	0xbdc64db2	-0.09682788

mlp_extractor.policy_net.0.bias f4 [64]
0	0xbd2ca014	-0.04214485
1	0xbd0bc839	-0.034126494
2	0xbcd77072	-0.026298735
3	0xbd84c84b	-0.06483515
4	0xbcfe80cc	-0.031067275
5	0xbd402cb3	-0.04691763
6	0xbca64156	-0.020294826
7	0xbabb2fbc	-0.0014281194
8	0x3b15c364	0.0022852058
9	0x3c39133d	0.011296091
10	0xbc24d5f8	-0.01006078
11	0x3cfaaaf8	0.030599102
12	0xbc350c0d	-0.011050236
13	0xbbd8cf83	-0.006616534
14	0x3d72cd37	0.05927774
15	0x3d077f4c	0.033080384
16	0xbb566405	-0.0032713425
17	0xbcb15125	-0.021645138
18	0xbd9f5439	-0.07779736
19	0xbd9d4675	-0.07679454
20	0xbcab80c0	-0.020935416
21	0xbda47647	-0.08030372
22	0xbd473e59	-0.048643444
23	0x3d4e2f21	0.050337914
24	0x3d3800ed	0.044922758
25	0x3cb51dbe	0.022108909
26	0xbca636a7	-0.020289732
27	0x3d1f5a0d	0.03890424
28	0x3ac7f606	0.0015255816
29	0xbcda5219	-0.026650475
30	0x3c1c8cad	0.009555024
31	0xbcb6e684	-0.022326715
32	0x3d35b9f0	0.044366777
33	0x3d27325c	0.04081951
34	0x3c993d24	0.018705912
35	0x3bb9160a	0.005648379
36	0x3db54389	0.08850772
37	0xbc357d4b	-0.011077235
38	0xbcb51ace	-0.022107508
39	0xbc740d11	-0.014895693
40	0xbc3a03eb	-0.011353473
41	0x3971ef7e	0.00023072769
42	0xbc24700b	-0.010036479
43	0xbc0dbb79	-0.008650654
44	0xbc5fbe90	-0.0136562735
45	0x3cdb4cf0	0.026770085
46	0x3d4274da	0.04747472
47	0x3cf489f3	0.029850936
48	0xbcd58743	-0.026065474
49	0x3d2427f4	0.040077165
50	0x3cbcc2d7	0.023042126
51	0x3cdb7ae4	0.026791997
52	0x3b87f85e	0.0041494807
53	0x3b45f1ac	0.0030203862
54	0x3c5bebf1	0.013422952
55	0x39a6d1af	0.00031818214
56	0xbd80d960	-0.06291461
57	0x3d9b210f	0.07574665
58	0xbd37aecc	-0.044844434
59	0xbcad2f7b	-0.021140805
60	0xbd25e60f	-0.040502604
61	0xbba92de2	-0.0051629404
62	0x3cd9ec5b	0.02660196
63	0x3b066b5f	0.0020510776

mlp_extractor.policy_net.2.weight f4 [64, 64]
0	0x3e6ca32a	0.23109117
1	0x3e0cb6aa	0.13741556
2	0xbd80b810	-0.06285107
3	0x3e42ecdb	0.19035666
4	0xbe3750ca	-0.17901912
5	0x3c8451b8	0.016152248
6	0x3e0b614a	0.13611332
7	0xbea6e16f	-0.32593867
8	0xbda79084	-0.08181861
9	0x3e4e9497	0.2017387
10	0xbda29ffa	-0.07940669
11	0xbe10ca60	-0.141397
12	0x3e135844	0.1438914
13	0x3e95694c	0.29181898
14	0x3deffad5	0.11717764
15	0xbce98cca	-0.028509516
16	0x3ec84f6e	0.391231
17	0xbe6615f2	-0.22469309
18	0xbd942e89	-0.072354384
19	0xbc95ceed	-0.018287146
20	0x3ed0a950	0.40754175
21	0x3dc2f2fa	0.09519
22	0xbdb11690	-0.086468816
23	0x3d277b92	0.04088933
24	0x3e6c2473	0.2306078
25	0xbe52605b	-0.20544569
26	0xbd040fa0	-0.032241464
27	0x3eccfdf0	0.4003749
28	0xbe326d20	-0.1742444
29	0x3cb60ce4	0.022222944
30	0xbca8e2b7	-0.020615919
31	0x3ddbe490	0.10736954
32	0x3d26f402	0.040760048
33	0xbe05f664	-0.13082272
34	0xbbde3d45	-0.0067822062
35	0xbe131ed1	-0.14367224
36	0xbdcec956	-0.100969955
37	0xbda77887	-0.08177286
38	0x3d612e8b	0.054976027
39	0xbd88f21f	-0.06686806
40	0xbd302a2c	-0.04300897
41	0x3e01bfe7	0.12670861
42	0xbe1ec3f2	-0.15504435
43	0xbcd6fffc	-0.02624511
44	0x3dd6fc21	0.104973085
45	0xbe482081	-0.1954365
46	0x3e72b602	0.23702243
47	0x3db8bae5	0.09020022
48	0x3c74f74f	0.014951541
49	0x3dbb7389	0.09152896
50	0x3db2bdfc	0.08727643
51	0x3e3a20cc	0.18176574
52	0x3d3d977e	0.046287052
53	0x3dbcdd59	0.09221906
54	0xbebb4019	-0.3657234
55	0x3d593ce6	0.053036593
56	0x3e920fd6	0.28527707
57	0xbd084702	-0.033270843
58	0x3e523210	0.2052691
59	0x3eca1ddb	0.39475903
60	0xbe42bff8	-0.19018543
61	0xbda9ec2e	-0.08297001
62	0xbed8300a	-0.4222415
63	0x3dbec714	0.09315315
64	0xbd8319d6	-0.06401412
65	0xbd4082a9	-0.046999607
66	0x3d9619d2	0.073291436
67	0xbd0f1cef	-0.034939703
68	0xbe14fded	-0.1454999
69	0x3e2decac	0.16984814
70	0x3d73145d	0.05934559
71	0x3d8ffb48	0.0703035
72	0x3e2c6e48	0.16838944
73	0x3da61e5c	0.08111259
74	0xbd57a5c1	-0.05264831
75	0x3efa08c0	0.488348
76	0xbe4ce1ea	-0.20008054
77	0x3e1b62bb	0.15174381
78	0x3e5d8938	0.21634376
79	0x3e8b40aa	0.27197772
80	0x3e9f8e58	0.31163287
81	0xbe09c82d	-0.13455267
82	0x3c061a71	0.008185015
83	0xbde4c3fd	-0.11170194
84	0xbd7daa91	-0.061930243
85	0xbdff8634	-0.12476769
86	0xbd0e7202	-0.034776695
87	0xbda206d6	-0.0791146
88	0xbe5e79e9	-0.21726193
89	0xbd6668ea	-0.056252398
90	0x3e77c86b	0.24197547
91	0x3e15b418	0.14619482
92	0x3e1d83db	0.1538233
93	0x3e8db089	0.27673748
94	0x3dbe7e35	0.09301416
95	0xbc847541	-0.016169192
96	0x3d0c079e	0.03418695
97	0x3e3d2cfa	0.18474188
98	0xbe9576b3	-0.29192123
99	0xbe9be6ee	-0.30449623
100	0x3e6a05eb	0.2285382
101	0x3e214e40	0.15752506
102	0x3db020d6	0.08600013
103	0xbdb974c0	-0.090554714
104	0x3ca03d9b	0.019560626
105	0xbccb445b	-0.024812868
106	0x3df7569f	0.120770685
107	0xbe8f6632	-0.28007656
108	0x3e9ca60e	0.3059544
109	0x3e88408e	0.2661175
110	0x3e26692b	0.16251056
111	0xbed43ec4	-0.41454136
112	0x3e566dd1	0.20940329
113	0xbcb2273f	-0.02174723
114	0x3a1811d9	0.00058009994
115	0x3ed736f9	0.42034128
116	0xbd534e52	-0.051588364
117	0x3eaec14d	0.34131852
118	0xbc06a1fa	-0.008217329
119	0xbbff3eda	-0.007789475
120	0xbea596b0	-0.32341528
121	0xbec4f1d6	-0.38465756
122	0x3ecb3ee8	0.3969643
123	0x3deb0979	0.11476416
124	0xbe99f643	-0.30070695
125	0xbd05fb6b	-0.032710474
126	0x3dc86fb2	0.09786929
127	0xbe29d9cf	-0.16586994
128	0x3d408f7c	0.047011837
129	0x3e6e60fc	0.23279184
130	0x3e52c6c9	0.20583643
131	0xbcc3f8d2	-0.023922358
132	0x3e926787	0.2859461
133	0xbe0d983a	-0.13827601
134	0xbe63d595	-0.22249444
135	0x3e3499f6	0.17636856
136	0x3d58dd43	0.052945387
137	0x3e695395	0.2278579
138	0x3e65b14e	0.22430918
139	0xbca91e72	-0.0206444
140	0xbe0f2af1	-0.13981225
141	0x3e1b526b	0.15168159
142	0xbddd066e	-0.10792242
143	0x3e45bd76	0.19310555
144	0x3ec2010c	0.37891424
145	0x3dfbbc15	0.12291733
146	0xbe6e2bc2	-0.2325888
147	0xbc10da76	-0.008841148
148	0xbe48d4d1	-0.19612433
149	0xbe3442e0	-0.17603636
150	0x3cdee5a0	0.027209103
151	0xbd972097	-0.07379263
152	0xbe63e42b	-0.22255008
153	0xbe68aa03	-0.22721104
154	0x3de3c3aa	0.11121304
155	0xbde3a12a	-0.11114724
156	0xbda6e319	-0.08148784
157	0xbdb84ca4	-0.08998993
158	0x3e95b44d	0.2923912
159	0x3ea85a36	0.32881325
160	0x3e96c2dd	0.29445544
161	0xbddb624d	-0.10712109
162	0x3d2762aa	0.040865578
163	0x3d328243	0.04358126
164	0x3db0c58f	0.08631431
165	0xbebce14c	-0.36890638
166	0x3e819627	0.2530987
167	0x3cb8dc83	0.022566086
168	0x3dd9c37f	0.10632991
169	0x3d8614f1	0.06546963
170	0x3dc65881	0.096848495
171	0xbe0a2f50	-0.13494611
172	0x3ebdc106	0.37061328
173	0x3d96d90d	0.07365618
174	0xbd4dd199	-0.050248716
175	0x3e62aaa2	0.22135404
176	0xbe1697ca	-0.1470634
177	0xbc18694b	-0.009302448
178	0x3ea965cc	0.33085477
179	0x3ce2ce68	0.027686313
180	0xbd01ba88	-0.03167203
181	0xbe4854c1	-0.19563581
182	0x3e49e6e1	0.1971698
183	0x3d919a96	0.07109563
184	0x3d8a0c8a	0.06740673
185	0x3e2bc0d4	0.16772777
186	0x3d9be17b	0.07611366
187	0x3e80cd51	0.25156644
188	0xbe830658	-0.25590777
189	0xbe52a829	-0.2057196
190	0x3decbea2	0.11559798
191	0x3dbf0410	0.09326947
192	0x3da18931	0.07887495
193	0xbdf8c078	-0.121460855
194	0xbd762e1c	-0.060102567
195	0x3e76aa19	0.24088325
196	0xbea39cf1	-0.31955674
197	0x3ced9f90	0.02900675
198	0xbe83ef2a	-0.25768405
199	0xbe31961b	-0.17342417
200	0x3e10d275	0.14142783
201	0x3ed4f9fe	0.4159698
202	0xbcd6d73d	-0.02622568
203	0x3d2be047	0.041961934
204	0xbd2e49bd	-0.04255079
205	0xbe36f2bd	-0.17866035
206	0xbdd6b8d6	-0.104844734
207	0x3daa329c	0.08310434
208	0xbd9ca01b	-0.07647725
209	0x3e54369a	0.20723954
210	0xbe0435fa	-0.12911215
211	0xbe07bf46	-0.13256559
212	0xbebb9d04	-0.3664323
213	0xbdd2da18	-0.10295504
214	0xbebed9e8	-0.37275624
215	0xbeae91ed	-0.34095708
216	0xbd96b8e9	-0.073594876
217	0x3b5f7e53	0.0034102395
218	0xbe42d9f2	-0.19028452
219	0x3cfaa39e	0.030595597
220	0x3e5295db	0.20564978
221	0xbe5260e7	-0.20544778
222	0xbe9f6885	-0.3113443
223	0xbd080d83	-0.03321601
224	0xbea49c86	-0.32150668
225	0x3d0500bd	0.032471407
226	0xbd8697a1	-0.0657189
227	0x3e012c6b	0.126146
228	0x3ee7a6e9	0.4524453
229	0x3edb9298	0.4288528
230	0xbe02262b	-0.12709872
231	0x3b00b122	0.001963683
232	0x3e40b3d4	0.18818599
233	0x3d516906	0.05112555
234	0xbeb717c4	-0.3576032
235	0xbda35c4c	-0.079765886
236	0xbd65ded6	-0.056120716
237	0xbe626d6f	-0.22112058
238	0xbe195e30	-0.14977336
239	0x3e5fa81e	0.21841475
240	0x3d9b28d2	0.07576145
241	0xbc9d305d	-0.0191881
242	0x3dbc8367	0.092047505
243	0xbe586632	-0.21132734
244	0xbbf4248e	-0.0074506467
245	0xbe9ec73c	-0.3101138
246	0xbe85ec78	-0.26156974
247	0x3e2ccd7c	0.16875261
248	0xbb7078f5	-0.003669319
249	0xbec77c50	-0.3896203
250	0xbe1a5131	-0.15070035
251	0x3e4bc185	0.1989804
252	0x3ec94aa2	0.39314753
253	0x3c3b8575	0.011445393
254	0x3e20b1f1	0.1569288
255	0xbcbb98a3	-0.022899931

mlp_extractor.policy_net.2.bias f4 [64]
0	0xbbbcd94c	-0.0057632085
1	0x3cd086dc	0.025454931
2	0x3c7610c8	0.015018649
3	0x3cd8fa3c	0.026486509
4	0xbc114379	-0.008866184
5	0xbcebd844	-0.028789647
6	0x3cd23c56	0.025663536
7	0xbc3b0940	-0.01141578
8	0xbccde3b5	-0.025132993
9	0xba07ec4e	-0.00051850535
10	0xbabd4ab3	-0.0014441818
11	0xbc8f60d7	-0.017502232
12	0xbc63c56f	-0.013902052
13	0xbc2d85cb	-0.010590981
14	0xb9a845df	-0.00032095515
15	0x3c920857	0.017826242
16	0x3bdfc7de	0.006829246
17	0x3d2a7224	0.04161276
18	0x3c0cbd2d	0.008590025
19	0xbafa32ab	-0.0019088587
20	0xba1d43db	-0.0005999186
21	0xbb8cd5db	-0.0042979545
22	0x3c52f7ee	0.012876494
23	0xbbe4e792	-0.006985613
24	0xbc64a0aa	-0.013954321
25	0xbc6b4e99	-0.014362001
26	0x3cada9f3	0.021199202
27	0x3cd923e1	0.026506366
28	0xbc95fcc2	-0.018309
29	0xbbe09083	-0.0068531646
30	0x3c4a796f	0.012358054
31	0xbce01898	-0.027355477
32	0xbc88dbde	-0.016706403
33	0xbaa19332	-0.0012327193
34	0x3c95b223	0.018273419
35	0xbd1ca0c3	-0.03823925
36	0xbba71f04	-0.005100133
37	0xbbaed3d7	-0.005335312
38	0x3ced9bb5	0.029004911
39	0xbc05d80c	-0.008169185
40	0x3c36159a	0.011113549
41	0x3cab4c77	0.020910485
42	0xbc613cae	-0.013747377
43	0x3c97b9a4	0.018521138
44	0xbba060de	-0.00489436
45	0x3c29e05e	0.010368435
46	0x3bb5e634	0.005551124
47	0xbcb8b806	-0.022548687
48	0x3c83e722	0.016101424
49	0x3c66a9c4	0.014078561
50	0x3c719215	0.014744301
51	0x3d02d019	0.03193674
52	0x3b8ec3d0	0.0043568388
53	0xbb84ad27	-0.0040489617
54	0xbca29f5e	-0.019851383
55	0x3cd33a01	0.025784494
56	0x3c6a4401	0.01429844
57	0x3bbc721f	0.005750909
58	0x3ca6da5c	0.020367794
59	0xbcc39d50	-0.023878723
60	0x3b641ff3	0.0034809082
61	0xbd8c93e3	-0.06864145
62	0x3baeb6e7	0.0053318623
63	0x3ba8a422	0.0051465193

mlp_extractor.value_net.0.weight f4 [64, 86]
0	0x3f27f650	0.6561022
1	0x3ed14348	0.40871644
2	0xbf94227d	-1.1573025
3	0xbe87feef	-0.26561686
4	0x3f67b0aa	0.9050394
5	0x3f0f4fe2	0.55981266
6	0xbe8557cf	-0.26043555
7	0xbe77b20c	-0.24189013
8	0x3ebf8dcb	0.37412867
9	0x3d9d76f9	0.07688708
10	0xbe56da6d	-0.2098176
11	0xbd64e9d2	-0.05588705
12	0x3e0162a2	0.12635282
13	0x3e843b1a	0.2582634
14	0x3e38fe35	0.18065722
15	0x3e96fa97	0.2948806
16	0x3d72b6cf	0.05925637
17	0x3d862359	0.06549711
18	0x3de92cd5	0.11385504
19	0x3ef9c4a8	0.4878285
20	0xbe75b206	-0.23993692
21	0x3cb1d4f8	0.021707997
22	0x3e225f24	0.15856606
23	0x3b1d2bcc	0.0023982404
24	0x3e230129	0.15918411
25	0x3cd0c578	0.025484785
26	0xbdd80387	-0.10547548
27	0xbe2e46d3	-0.17019205
28	0xbdc0697a	-0.09395118
29	0xbe4e4f2c	-0.20147389
30	0x3d551db6	0.052030288
31	0xbe45c8f3	-0.19314937
32	0xbef15ba4	-0.4714023
33	0xbdbe2cb7	-0.092858724
34	0xbdcd2f1a	-0.100187495
35	0xbd5c2030	-0.053741634
36	0xbea54e4d	-0.322863
37	0xbe8e7b7f	-0.27828595
38	0x3e15a917	0.14615284
39	0xbdee39bb	-0.11632105
40	0xbdab8f6f	-0.08376967
41	0xbe008ae5	-0.12552984
42	0xbc87b9c9	-0.016568081
43	0x3bfe5cd2	0.00776253
44	0x3e5ea835	0.21743853
45	0x3dd1b663	0.10239866
46	0x3e526c94	0.20549232
47	0x3eaa1835	0.33221593
48	0x3ed8a421	0.4231272
49	0x3e61fe59	0.22069682
50	0x3e9c5b01	0.3053818
51	0x3d0c26fe	0.034216873
52	0x3e99c024	0.30029404
53	0x3e2af3a0	0.16694498
54	0x3eb89237	0.36049053
55	0x3e8fe672	0.28105503
56	0x3e5b1ccb	0.21397702
57	0x3db7cc6b	0.089745365
58	0x3e8280f6	0.25489014
59	0x3e37679a	0.17910615
60	0x3e0f751a	0.14009514
61	0x3d3c61af	0.045991596
62	0x3e575c93	0.21031408
63	0xbe810de5	-0.25205913
64	0xbb99ab50	-0.0046896115
65	0x3e663610	0.2248156
66	0xbdae9faf	-0.08526551
67	0x3c88947c	0.016672365
68	0x3d91240c	0.070869535
69	0xbb053467	-0.0020325424
70	0xbd2f8251	-0.04284889
71	0xbe26b485	-0.162798
72	0xbe49d943	-0.19711785
73	0xbea4ec02	-0.3221131
74	0xbdc39dfb	-0.09551617
75	0xbe08213c	-0.13293928
76	0xbebef365	-0.3729507
77	0x3dae3af8	0.08507341
78	0xbe749c7a	-0.23887816
79	0xbe04d258	-0.12970865
80	0xbe77da40	-0.2420435
81	0xbd450049	-0.048095975
82	0xbda9bce3	-0.082879804
83	0x3e071eb4	0.13195306
84	0xbde93df9	-0.113887735
85	0x3e137bac	0.14402646
86	0x3f649863	0.89295024
87	0x3ea02e2d	0.3128523
88	0xbe72570c	-0.23666018
89	0xbebf2977	-0.37336323
90	0x3e984c8d	0.29745904
91	0x3e1143ff	0.14186095
92	0x3f451a03	0.76992816
93	0xbd428f31	-0.04749984
94	0x3f019f19	0.5063339
95	0xbef1233c	-0.47097194
96	0xb9f96c6b	-0.0004757376
97	0x3df1aa4e	0.11800061
98	0x3eb928f5	0.3616406
99	0xbec910c4	-0.39270604
100	0x3e9d3cad	0.30710354
101	0x3e7ab9e1	0.2448497
102	0x3d8eb098	0.06967276
103	0xbf004c4c	-0.5011642
104	0x3f1e3462	0.6179868
105	0x3dcd1c0e	0.10015117
106	0x3e33690d	0.17520542
107	0xbe5f69cb	-0.218177
108	0x3e3b9bfa	0.18321219
109	0xbce5f6e0	-0.02807182
110	0xbcc9eff2	-0.024650548
111	0xbe4be364	-0.19910961
112	0x3e493bb0	0.19651675
113	0x3e237c84	0.15965468
114	0x3e89dc7a	0.26926023
115	0x3e8a6a76	0.27034348
116	0x3c10f211	0.008846776
117	0xbdac8f19	-0.08425731
118	0x3e64a7cd	0.22329636
119	0x3dea8afd	0.11452291
120	0x3ead7ab4	0.33882678
121	0x3e418950	0.18900037
122	0x3e9a2c16	0.3011176
123	0xbe957ffc	-0.29199207
124	0xbd4bd2ce	-0.049761586
125	0xbe95481a	-0.29156572
126	0xbe2e8cc7	-0.1704589
127	0x3ddfcd95	0.109278835
128	0x3ea4241c	0.320588
129	0x3ed7382c	0.42035043
130	0x3efa51b1	0.4889045
131	0x3e23f756	0.1601232
132	0xbd299623	-0.041402947
133	0xbe5b4bb8	-0.21415603
134	0xbec55e2a	-0.38548404
135	0x3d622d81	0.055219177
136	0x3eb55bc9	0.3542159
137	0x3ecd5680	0.40105057
138	0xbdb15aab	-0.08659872
139	0xbd8af7b1	-0.06785525
140	0x3ea4f2ff	0.3221664
141	0xbe681899	-0.22665633
142	0xbd812cdd	-0.06307385
143	0xbdaf88f4	-0.085710436
144	0x3e35ac44	0.17741495
145	0x3e114c3d	0.14189239
146	0x3db84d65	0.08999137
147	0x3e6511a0	0.22370005
148	0xbc375ca9	-0.0111915255
149	0x3e2863e6	0.16444358
150	0x3f05d497	0.5227751
151	0x3e877505	0.26456466
152	0x3e6bf67b	0.23043244
153	0x3df89164	0.12137106
154	0xbd8804b5	-0.06641523
155	0xbc52e35e	-0.012871591
156	0xbcd6eafd	-0.026235098
157	0xbe2ce9ff	-0.16886137
158	0x3dc4fa78	0.096180856
159	0xbe262736	-0.16225895
160	0xbd33ee4a	-0.043928422
161	0xbdf4ab9b	-0.11946794
162	0xbd2fa8b4	-0.042885497
163	0x3c83822d	0.016053284
164	0xbeb02c7c	-0.3440894
165	0xbde85a8c	-0.113453954
166	0xbe13a402	-0.14418033
167	0x3e56e1ac	0.20984524
168	0xbeabf5de	-0.3358602
169	0x3eb8b936	0.36078805
170	0x3d897b20	0.06712937
171	0xbdb168de	-0.0866258
172	0xbde98672	-0.114025965
173	0x3f06d8aa	0.52674353
174	0xbe3569e4	-0.17716175
175	0xbe840a39	-0.2578905
176	0xbcab9b23	-0.020947998
177	0xbe82f8b6	-0.25580376
178	0xbe4faea5	-0.20281465
179	0x3f1b84a8	0.6074929
180	0xbf340481	-0.7031937
181	0xbead23ce	-0.3381638
182	0x3f0ac225	0.5420249
183	0x3f0e9031	0.5568877
184	0xbee13283	-0.4398385
185	0x3d0f9efa	0.03506372
186	0xbde134e7	-0.109964184
187	0x3c0416a7	0.008062041
188	0x3e5ed039	0.21759118
189	0x3e703a56	0.23459753
190	0x3e216172	0.15759829
191	0x3e8b610b	0.27222475
192	0x3e5ee6f0	0.21767783
193	0xbd977958	-0.07396191
194	0xbd872b49	-0.06600053
195	0xbd67afe7	-0.056564238
196	0x3d397ea9	0.04528681
197	0xbd3c5818	-0.04598245
198	0xbc823fdd	-0.015899593
199	0x3e498567	0.19679795
200	0xbe329ebe	-0.17443368
201	0xbd805afe	-0.062673554
202	0x3dfa0d5f	0.122095816
203	0x3d12e58d	0.035863448
204	0xbdf25703	-0.118330024
205	0x3ca7b0c6	0.020470034
206	0x3dea8a11	0.11452115
207	0xbd888e18	-0.06667727
208	0xbd9f2fbc	-0.077727765
209	0x3d65cb33	0.05610199
210	0x3e3f3b01	0.18674852
211	0xbe2e7b0a	-0.17039123
212	0xbd3eac1a	-0.046550848
213	0x3e80d27f	0.25160596
214	0xbd34da8a	-0.044153728
215	0x3dca7eb6	0.098874494
216	0x3d675485	0.05647709
217	0xbdb307c8	-0.087417185
218	0x3e7edc91	0.24888827
219	0x3ea77737	0.3270814
220	0xbdfb9d65	-0.1228588
221	0xbe891682	-0.26774985
222	0xbe353c0e	-0.1769869
223	0xbe85c683	-0.26128015
224	0xbe1816c5	-0.14852436
225	0xbe6ec6c6	-0.23318014
226	0xbd3bf6c5	-0.045889635
227	0xbdbe1e88	-0.09283167
228	0xbe70f6f2	-0.23531702
229	0x3e4ac83c	0.19802946
230	0x3e4ff798	0.20309293
231	0x3e1bbf74	0.15209752
232	0x3e6b25a9	0.22963585
233	0x3df132de	0.1177728
234	0xbc4405e0	-0.011964291
235	0x3e5bd21e	0.21466872
236	0x3e8e7019	0.278199
237	0xbe1c3de9	-0.15257992
238	0x3c3666b6	0.011132887
239	0x3dbc87b3	0.0920557
240	0xbbbacdf9	-0.0057008234
241	0xbde21e44	-0.11040929
242	0xbe1d0d92	-0.15337208
243	0x3e429e6d	0.19005747
244	0xbd9f8f0f	-0.07790958
245	0xbdc3b617	-0.09556215
246	0xbd070c90	-0.032970965
247	0xbc27edd3	-0.010249573
248	0xbdc00cb0	-0.0937742
249	0xbdbed0b8	-0.09317154
250	0x3e473c1e	0.19456527
251	0xbead408e	-0.33838314
252	0xbd6c650d	-0.057713557
253	0x3d904ad9	0.07045526
254	0xbd34c944	-0.044137254
255	0xbe61a208	-0.22034466

mlp_extractor.value_net.0.bias f4 [64]
0	0x3e919947	0.28437254
1	0x3e78b597	0.24288021
2	0xbd3a8ef3	-0.045546483
3	0x3de499c5	0.11162142
4	0x3e644c19	0.22294654
5	0x3df8203f	0.121155255
6	0x3e5aa001	0.21350099
7	0xbe10d1e9	-0.14142574
8	0x3ea23f7e	0.31689066
9	0x3e2714f8	0.16316593
10	0x3e05b6c0	0.13057995
11	0xbea60fa5	-0.3243381
12	0x3dabd77c	0.0839071
13	0x3e0af740	0.13570881
14	0xbe9fde9d	-0.31224528
15	0x3e788780	0.24270439
16	0xbcb5a4bc	-0.022173278
17	0xbe67b10f	-0.22626136
18	0x3da172ac	0.078832
19	0xbe3f13c0	-0.18659878
20	0x3eaebd0f	0.34128615
21	0xbeb6f2f5	-0.35732237
22	0xbca94657	-0.020663423
23	0xbda853e4	-0.08219126
24	0x3ea607eb	0.32427916
25	0xbedb313a	-0.42810994
26	0x3e896dc6	0.26841563
27	0xbeb9e05c	-0.36303985
28	0x3e82ca82	0.25545126
29	0xbeab706c	-0.3348421
30	0xbeadb572	-0.33927494
31	0x3e569d3d	0.20958419
32	0xbe990a1a	-0.2989052
33	0xbe14df53	-0.14538316
34	0xbe3bc380	-0.18336296
35	0xbe8b72ed	-0.2723612
36	0x3de7ebe0	0.113242865
37	0xbd7349d1	-0.05939657
38	0x3e266375	0.16248877
39	0x3c837eb0	0.01605162
40	0xbdfc81f8	-0.12329477
41	0x3e5a7b7e	0.21336171
42	0xbe1b944b	-0.15193288
43	0xbe21ce34	-0.15801316
44	0x3d837c33	0.064201735
45	0xbeec49b4	-0.4614998
46	0xbe3db691	-0.18526675
47	0x3dc1c4a0	0.09461331
48	0xbdcebf2c	-0.10095057
49	0x3e11dbdb	0.14244024
50	0x3e2d94f6	0.16951355
51	0x3c01eb72	0.00792967
52	0x3e96f1d9	0.2948139
53	0x3dd61709	0.10453612
54	0x3cf688e8	0.030094579
55	0x3d32a904	0.043618217
56	0xbe2207d7	-0.15823303
57	0xbe89a3d2	-0.26882797
58	0x3ed971d7	0.42469665
59	0x3e571c2f	0.21006845
60	0x3ed50f69	0.4161332
61	0x3c96718f	0.018364696
62	0x3ce1b1ab	0.027550539
63	0x3ea3f73e	0.32024568

mlp_extractor.value_net.2.weight f4 [64, 64]
0	0x3ec05354	0.37563574
1	0x3f2212c8	0.6330991
2	0xbf409211	-0.7522288
3	0xbeaac16e	-0.333507
4	0xbe997333	-0.29970703
5	0xbd4a64b0	-0.04941243
6	0x3f183914	0.59462094
7	0x3f1c3f4b	0.6103408
8	0x3e593494	0.21211463
9	0x3f772d97	0.9655394
10	0xbe4e5da5	-0.2015291
11	0xbea582e9	-0.3232644
12	0xbec62a8d	-0.3870434
13	0xbe4ff9f8	-0.203102
14	0x3e8cf84d	0.27533188
15	0xbe2f6d82	-0.17131618
16	0xbe6770e4	-0.22601658
17	0x3f062c34	0.524112
18	0xbe86b8e7	-0.26312944
19	0x3e04a67a	0.12954131
20	0xbe195ed5	-0.14977582
21	0xbf005697	-0.50132126
22	0x3dd1dc67	0.102471165
23	0x3e447cd8	0.19188249
24	0x3f38b367	0.72148746
25	0x3dd66841	0.104691036
26	0xbee9ca5f	-0.4566221
27	0x3e259b8c	0.16172618
28	0xbdceba08	-0.100940764
29	0xbf0b3d81	-0.5439072
30	0xbe8c716a	-0.27430278
31	0x3e6ae285	0.22937973
32	0x3d2e6b56	0.042582832
33	0x3f053b41	0.5204354
34	0xbd26c477	-0.040714707
35	0xbf1229d8	-0.570951
36	0x3ec6afe1	0.3880606
37	0x3e6f8d43	0.23393731
38	0xbf37d5a2	-0.7181035
39	0x3e85cac8	0.26131272
40	0x3dd7613c	0.10516593
41	0x3c28d240	0.010304034
42	0x3f59772f	0.84947485
43	0xbe0dd04d	-0.13848992
44	0x3d77488d	0.060371924
45	0x3e9f77fe	0.31146234
46	0xbeb4a8a5	-0.35284916
47	0x3e24753e	0.1606035
48	0xbdbb6795	-0.09150616
49	0xbdfe19c3	-0.124072574
50	0x3f43b38c	0.7644584
51	0x3dd6bd91	0.10485376
52	0x3e3e56b5	0.18587764
53	0xbe519952	-0.20468643
54	0x3e6dd2d3	0.23224954
55	0xbea592dc	-0.32338607
56	0xbdea4759	-0.1143939
57	0xbe4c8c2f	-0.19975351
58	0xbee0b20a	-0.43885833
59	0xbf0798fd	-0.52967817
60	0x3d96168c	0.07328519
61	0xbe828d33	-0.2549835
62	0x3d968606	0.07349782
63	0xbe069855	-0.13144048
64	0xbf02facb	-0.5116393
65	0xbe2f6a35	-0.17130359
66	0x3f143512	0.5789348
67	0x3da307ae	0.07960449
68	0xbf2f5902	-0.6849519
69	0x3eda82fc	0.42678058
70	0xbec99d18	-0.39377666
71	0xbdf45b74	-0.11931506
72	0xbe509070	-0.20367599
73	0xbf837939	-1.0271369
74	0xbdf0163c	-0.11722991
75	0x3f127d21	0.5722218
76	0xbf39c511	-0.72566324
77	0xbf6200d3	-0.8828251
78	0x3f1e9c8a	0.6195761
79	0xbe017a6e	-0.1264436
80	0xbededd2a	-0.4352811
81	0x3bf8e753	0.0075959354
82	0x3f67f9da	0.9061562
83	0x3eec2f53	0.46129856
84	0xbf325e9c	-0.6967561
85	0x3e8480c6	0.25879496
86	0x3f85db8f	1.0457629
87	0xbeeb057c	-0.45902622
88	0xbf294c19	-0.6613174
89	0x3f0e1915	0.5550702
90	0xbf1ee472	-0.6206733
91	0xbf181b5e	-0.5941676
92	0xbf070456	-0.5274099
93	0x3f307f73	0.6894447
94	0x3ea5dc59	0.32394674
95	0xbe916830	-0.283998
96	0x3e77f157	0.24213158
97	0x3f06291c	0.5240648
98	0x3f67621e	0.9038409
99	0x3f7a55c6	0.9778713
100	0xbde9e8fc	-0.11421391
101	0x3e0cdff1	0.13757302
102	0xbe8a9fa6	-0.27074927
103	0x3ebe1ec3	0.37132844
104	0x3e7378de	0.23776576
105	0x3f0a0121	0.5390797
106	0x3ded34c8	0.11582333
107	0x3f672d6b	0.9030368
108	0x3e4aa570	0.19789672
109	0x3d961020	0.07327294
110	0xbf20dc6c	-0.6283634
111	0xbf3a08fc	-0.7266996
112	0xbdd2dce5	-0.102960385
113	0x3ee5ac81	0.44858173
114	0xbf281d4c	-0.65669703
115	0x3ec34135	0.38135687
116	0xbf00a9a9	-0.5025888
117	0x3f186d66	0.5954193
118	0xbf16d33a	-0.58916056
119	0x3eab0d22	0.33408457
120	0xbee3775b	-0.44426998
121	0x3fca2d82	1.5795138
122	0xbe6792e7	-0.22614633
123	0x3f46c38b	0.77642125
124	0xbf84b08c	-1.0366378
125	0xbed9bca6	-0.4252674
126	0x3e745ce2	0.23863557
127	0xbf4a0df0	-0.78927517
128	0xbf288b16	-0.6583723
129	0x3e74cd2b	0.2390639
130	0x3e4f574d	0.20248146
131	0xbe59f0ae	-0.21283218
132	0xbc8d63c9	-0.017259495
133	0x3eadbe94	0.33934462
134	0x3f4184fd	0.7559355
135	0x3f13e0c7	0.5776486
136	0xbe53e217	-0.20691715
137	0x3f0888b0	0.5333357
138	0xbedd9153	-0.43274936
139	0x3eab82d6	0.33498257
140	0xbefb87a2	-0.49126917
141	0xbd4c878b	-0.04993395
142	0x3f1a8d0a	0.6037146
143	0xbe4247a8	-0.18972647
144	0xbe88174d	-0.26580277
145	0x3ec4f7b7	0.3847024
146	0x3e68dbd3	0.22740106
147	0xbeccf111	-0.4002767
148	0xbeef46b4	-0.4673363
149	0x3c94e41b	0.018175175
150	0x3e853c25	0.2602245
151	0xbf2c712d	-0.6736019
152	0xbe4cab72	-0.19987276
153	0x3f36c6f9	0.7139736
154	0xbc89a6c8	-0.01680316
155	0xbea62a8a	-0.3245433
156	0x3ee3e8a0	0.44513416
157	0xbe08af7c	-0.13348192
158	0x3f737b04	0.9510958
159	0xbe935b4d	-0.28780594
160	0xbeb074e9	-0.34464195
161	0x3ecf9183	0.40540704
162	0x3e6b3134	0.22967988
163	0x3df3a22e	0.11896168
164	0xbf0fcdf6	-0.56173646
165	0x3f80bcf5	1.0057665
166	0xbe366518	-0.17812002
167	0x3dfbee94	0.123013645
168	0x3f0024bf	0.5005607
169	0x3b9f489a	0.0048609497
170	0x3ee21b4b	0.44161448
171	0xbeb80a40	-0.3594532
172	0xbf16d431	-0.5891753
173	0xbe1cdd86	-0.1531888
174	0xbcb02e34	-0.021506406
175	0xbe3e6ed8	-0.18596971
176	0xbf820717	-1.0158414
177	0x3f6973e9	0.9119249
178	0x3e92293f	0.28547093
179	0x3e2e0977	0.16995798
180	0xbeae751a	-0.34073716
181	0x3dc5fa36	0.096668646
182	0xbe9f0638	-0.31059432
183	0x3c42952f	0.011876388
184	0xbda5b3d9	-0.08090944
185	0x3d9ba298	0.07599372
186	0xbd66fafe	-0.05639171
187	0x3e7bdebc	0.24596685
188	0x3d78c3ab	0.06073348
189	0x3e8c28c0	0.2737484
190	0xbf5c989c	-0.86170363
191	0xbea99efd	-0.3312911
192	0x3f30b673	0.69028395
193	0xbe135847	-0.14389144
194	0x3f01197e	0.50429523
195	0xbe5f1d1a	-0.21788445
196	0x3e1ccdc4	0.15312868
197	0xbedf6834	-0.43634188
198	0xbf04f126	-0.51930463
199	0xbf88420d	-1.0645157
200	0xbe643e22	-0.22289327
201	0xbede7b22	-0.43453318
202	0x3f585cf6	0.8451685
203	0xbef1dcfb	-0.47238907
204	0x3e1c60f8	0.15271366
205	0xbe8c77db	-0.27435192
206	0xbda275bf	-0.079326145
207	0x3e3fdb5c	0.18736023
208	0xbebe5ccd	-0.37180176
209	0xbe5beacd	-0.21476288
210	0x3f020203	0.5078432
211	0x3eae2036	0.3400895
212	0x3dbe9b8c	0.09307012
213	0x3dd13c82	0.10216619
214	0xbee68156	-0.4502055
215	0xbe67cfcd	-0.22637863
216	0xbf8143b9	-1.0098792
217	0xbf7d4017	-0.9892592
218	0x3f9f71df	1.2456626
219	0xbc438519	-0.011933588
220	0xbeed4f2e	-0.46349472
221	0x3f24dac6	0.6439632
222	0xbf825da6	-1.0184829
223	0xbdbaa088	-0.0911265
224	0x3e9ff579	0.31241968
225	0xbdf368d5	-0.118852295
226	0x3ef21709	0.472832
227	0x3f37bb39	0.71770054
228	0xbdca72ed	-0.098852016
229	0x3eae5d28	0.34055448
230	0xbdc79443	-0.097450756
231	0xbf18a989	-0.5963369
232	0xbed91928	-0.42402005
233	0xbda9e552	-0.082956925
234	0xbd1bc5d9	-0.03803048
235	0x3f5bd7c7	0.85876125
236	0x3ee3b1a6	0.44471473
237	0xbecfd674	-0.40593302
238	0x3da1abc0	0.07894087
239	0xbe2591cb	-0.16168897
240	0xbc08237f	-0.008309244
241	0xbe4909de	-0.1963267
242	0xbe886a9e	-0.26643842
243	0xbdfae080	-0.12249851
244	0xbd658f3e	-0.05604481
245	0xbe3ea0e6	-0.18616065
246	0x3e2ed0e3	0.17071871
247	0x3ce41575	0.027842263
248	0x3dbc70c3	0.09201195
249	0x3ebdc493	0.37064037
250	0x3f1a68c2	0.603161
251	0x3edd6b76	0.4324605
252	0xbecdd455	-0.4020106
253	0x3eaa749b	0.33292088
254	0x3f101554	0.56282544
255	0x3bd64b88	0.0065397657

mlp_extractor.value_net.2.bias f4 [64]
0	0x3e79ada4	0.24382645
1	0xbf016637	-0.5054659
2	0x3e6fb5e4	0.2340923
3	0xbec36e89	-0.3817027
4	0x3e183fd9	0.14868106
5	0xbe880e29	-0.26573303
6	0x3eadea9c	0.33968055
7	0xbe5331ee	-0.20624515
8	0x3e1e5cf3	0.15465145
9	0xbe306e57	-0.17229591
10	0x3edbe219	0.42945936
11	0xbd57296b	-0.052529734
12	0x3ec3d9d0	0.38252115
13	0xbe580c64	-0.21098477
14	0xbdc07ac5	-0.093984164
15	0xbe897fb6	-0.26855248
16	0x3e402989	0.18765844
17	0x3e3c7da2	0.184073
18	0x3dcd2bdd	0.10018132
19	0xbec3446d	-0.38138142
20	0x3f0dc802	0.5538331
21	0x3efea9e6	0.49738997
22	0x3c9aba2a	0.018887598
23	0x3e312ea7	0.17302953
24	0x3edb85a2	0.4287539
25	0x3e484518	0.19557607
26	0x3d00bc66	0.03142967
27	0x3e0dc081	0.13842966
28	0xbeaff907	-0.3436968
29	0x3ea6e204	0.3259431
30	0xbe15124a	-0.14557758
31	0x3eba1df3	0.36350974
32	0x3e2183e5	0.1577297
33	0xbec24c37	-0.37948772
34	0xbe6bbd46	-0.23021421
35	0x3eb2ca71	0.34920076
36	0x3e5cdbf9	0.21568288
37	0xbe674f48	-0.22588837
38	0x3e4473c7	0.1918479
39	0x3f0466ac	0.51719165
40	0xbe840533	-0.25785217
41	0xbbccfb40	-0.0062555373
42	0xbf0f278c	-0.5591972
43	0x3d2d5876	0.04232069
44	0x3eb379c1	0.35053828
45	0x3db4d372	0.088293925
46	0xbee10b18	-0.43953776
47	0x3dbd28ee	0.09236322
48	0xbeb074e9	-0.34464195
49	0x3e11e67a	0.14248076
50	0xbe0f002a	-0.13964906
51	0xbdd6970d	-0.104780294
52	0x3ed99275	0.4249455
53	0x3d34811c	0.04406844
54	0xbdeff1b6	-0.117160246
55	0x3ec18f70	0.37804747
56	0x3ec8734f	0.39150473
57	0x3eb119f1	0.34590104
58	0x3e9f2d38	0.31089187
59	0xbdc446d5	-0.09583823
60	0x3dcd302f	0.10018956
61	0x3f17060c	0.589936
62	0xbe02debe	-0.12780282
63	0xbe938bd9	-0.28817633

action_net.weight f4 [2, 64]
0	0xbe773535	-0.2414139
1	0xbee602ca	-0.44924003
2	0xbe966713	-0.29375514
3	0x3f328624	0.6973593
4	0x3da3d76f	0.08000075
5	0x3e638fab	0.22222774
6	0xbeba11e7	-0.36341783
7	0x3ec9ef12	0.3944021
8	0xbe5ce60b	-0.2157213
9	0x3e17fa77	0.14841639
10	0x3d9f2135	0.077700056
11	0x3e10db32	0.14146116
12	0x3e64544f	0.22297786
13	0x3c84e7bc	0.01622378
14	0x3d24c9c8	0.040231496
15	0xbe97eca8	-0.29672742
16	0xbdda1c7d	-0.10649965
17	0xbedb6efd	-0.42858115
18	0xbe144b43	-0.14481835
19	0x3daff9b2	0.085925475
20	0x3e3f1d4c	0.1866352
21	0x3f254237	0.6455416
22	0xbe116cc5	-0.14201649
23	0x3ced587e	0.02897286
24	0xbe0d2267	-0.13782655
25	0x3e65cbc7	0.22441016
26	0x3f1b626f	0.6069707
27	0x3ec759b7	0.38935634
28	0xbf40426e	-0.75101364
29	0xbe8f3c9c	-0.2797593
30	0xbdb1839b	-0.0866768
31	0x3e44c822	0.1921697
32	0xbf0d6bbc	-0.55242515
33	0xbe3ca8bf	-0.18423747
34	0xbd66a906	-0.056313537
35	0xbdfdd737	-0.123945646
36	0xbe3a7009	-0.182068
37	0xbe073a48	-0.13205826
38	0xbe9c46de	-0.30522817
39	0x3dfcbc06	0.1234055
40	0xbe0cd5b1	-0.13753392
41	0xbd5e5d35	-0.054288108
42	0x3d0461a0	0.032319665
43	0xbdc3282b	-0.09529146
44	0x3d9fadbf	0.07796811
45	0xbe427ac1	-0.1899214
46	0xbd9080a7	-0.070557885
47	0x3e5e4a25	0.21707971
48	0xb9944f91	-0.0002828804
49	0xbe8a1505	-0.26969162
50	0x3f2016a4	0.62534547
51	0x3cb4094f	0.021977095
52	0xbee123c9	-0.43972614
53	0x3d123a99	0.035700414
54	0x3ea62b41	0.32454875
55	0x3b8e432c	0.0043415036
56	0x3e951881	0.29120257
57	0xbe27d94a	-0.16391483
58	0x3eca9733	0.3956848
59	0x3e8396b5	0.25700918
60	0xbc868020	-0.016418517
61	0x3e354b61	0.17704536
62	0xbe85fa9a	-0.26167756
63	0x3f2eff22	0.6835805
64	0x3d703ced	0.058651853
65	0x3ed9e73d	0.42559233
66	0x3bae8383	0.005325736
67	0x3e9c60d2	0.30542618
68	0x3a3b2643	0.00071391853
69	0xbf821e58	-1.016551
70	0xbe729eb9	-0.2369336
71	0x3da24477	0.07923215
72	0x3f58572d	0.8450802
73	0xbd5b1bf9	-0.053493474
74	0xbdedbc48	-0.116081774
75	0xbdce0a22	-0.100605264
76	0xbe6fdcc3	-0.23424058
77	0x3e45af71	0.19305207
78	0xbe971571	-0.29508546
79	0x3e013d7c	0.1262111
80	0xbde52041	-0.111877926
81	0xbd85a401	-0.06525422
82	0xbe488d5d	-0.19585176
83	0xbe5407a0	-0.20706034
84	0xbc9b2dd9	-0.01894276
85	0x3d8b3a84	0.0679827
86	0xbee0ba6c	-0.4389223
87	0x3d84fe04	0.06493762
88	0x3e96c555	0.29447427
89	0x3bbf274a	0.005833541
90	0x3cb62c50	0.022237927
91	0xbea9ffb3	-0.33202896
92	0xbb5f1211	-0.0034037868
93	0x3e0a7537	0.13521276
94	0x3cd3bd55	0.025847116
95	0xbe789c60	-0.24278402
96	0x3e2ba5fb	0.16762535
97	0xbd7b4708	-0.061347038
98	0xbc4e859b	-0.012605096
99	0x3f1f1a50	0.62149525
100	0x3cc6fa3e	0.024289247
101	0xbcac32bc	-0.021020286
102	0xbaba5656	-0.0014216404
103	0xbd500f6e	-0.050795965
104	0x3cd23ffe	0.02566528
105	0x3ef5a8bd	0.479803
106	0xbdcda306	-0.1004086
107	0x3f239cc9	0.6391111
108	0x3d94605d	0.07244942
109	0x3db373de	0.08762334
110	0x3d6c5182	0.05769492
111	0xbd963364	-0.07334021
112	0xbcc852df	-0.024453579
113	0xbf0df86f	-0.55457205
114	0x3df8c17f	0.121462815
115	0x3f6a5a81	0.9154435
116	0xbf034655	-0.51279193
117	0xbd3881a4	-0.04504551
118	0xbe17a1ef	-0.14807867
119	0x3bb98d9b	0.0056626326
120	0xbec37a37	-0.3817918
121	0xbe1d701e	-0.153748
122	0x3daf90a5	0.08572511
123	0x3f087686	0.5330585
124	0xbe9ec5df	-0.3101034
125	0x3f9f70f0	1.2456341
126	0x3c68e698	0.014215134
127	0x3c7e69da	0.015528167

action_net.bias f4 [2]
0	0x3b8838de	0.0041571697
1	0x3c520f2e	0.012821002

value_net.weight f4 [1, 64]
0	0x415b2130	13.695602
1	0x4151ded9	13.116906
2	0x415653f0	13.395493
3	0xc15de3f4	-13.868153
4	0xc1523bae	-13.13957
5	0xc15aefc8	-13.68354
6	0xc154202b	-13.2578535
7	0x4152a1af	13.164474
8	0x4151f9a4	13.123447
9	0x4151aaa3	13.104159
10	0xc150ea4d	-13.057202
11	0x4150e11a	13.054956
12	0x41593618	13.5757065
13	0xc153a1b1	-13.226975
14	0xc152fffb	-13.187495
15	0xc1533f89	-13.2030115
16	0xc15303f1	-13.188462
17	0xc1506ae6	-13.026098
18	0x41547445	13.278386
19	0xc15c331a	-13.762476
20	0xc152273b	-13.134578
21	0x415aa025	13.664098
22	0x41518a73	13.096301
23	0x41527702	13.154055
24	0x41567522	13.403597
25	0x4153ff75	13.249867
26	0x4152acc1	13.167176
27	0xc1564859	-13.392663
28	0x4150c6fd	13.048581
29	0xc15503bb	-13.313411
30	0xc15c579f	-13.771392
31	0x41574c5e	13.456144
32	0xc152c8ee	-13.174055
33	0x4151b921	13.1076975
34	0xc153fd72	-13.249376
35	0xc1526497	-13.149558
36	0xc151d7ec	-13.115215
37	0xc15133e6	-13.0751705
38	0x4152d64f	13.177321
39	0x41508f32	13.03496
40	0xc1535b62	-13.20981
41	0xc1511080	-13.066528
42	0xc158abf3	-13.54198
43	0x41516083	13.086062
44	0x415b151b	13.692653
45	0x4150a797	13.0409155
46	0x41533e88	13.202766
47	0xc15166ea	-13.0876255
48	0xc1530951	-13.1897745
49	0xc1530e8a	-13.19105
50	0xc152b6f4	-13.169666
51	0x41522bde	13.13571
52	0xc152c753	-13.173663
53	0x4153c45a	13.235437
54	0x41526e78	13.15197
55	0xc150792d	-13.029584
56	0x415a90f0	13.660385
57	0xc152b5e1	-13.169404
58	0x415b9889	13.72474
59	0xc1556e62	-13.339449
60	0xc1574a94	-13.455708
61	0x41590028	13.562538
62	0x4150f6a2	13.060213
63	0xc1592260	-13.570892
